data.pth (torch, 3863 bytes, 6 tensors)

l1.weight f4 [8, 29]
000000 d1 7d a1 be 6f 23 f1 3d e4 fa 9c 3e 56 f7 ee 3e
       -0.31541303 0.117743365 0.30660164 0.46673077
000010 36 0c 82 3e 27 b1 00 3e 1d ac 82 3e ac f1 b4 3e
       0.2539994 0.12567578 0.25521937 0.3534063
000020 0c 7c c9 3e f8 ab 2d 3e 5f af a1 3e 51 3f db be
       0.39352453 0.16960132 0.3157911 -0.42821744
000030 df 0e 12 3f 55 df a9 bd f2 d5 e2 3e 60 f8 fd 3e
       0.5705394 -0.0829455 0.44303852 0.49603558
000040 1e 15 a2 3e 37 f5 b3 be e1 22 2c be a6 bc ce 3e
       0.31656736 -0.35148022 -0.1681018 0.40378302
000050 4e 56 aa 3e ba 9a a5 3d 62 62 12 3f 60 5f 56 3f
       0.3326897 0.080861524 0.5718137 0.8373928
000060 87 0b 31 3e e9 27 2b bf 13 77 8a be 8c db c2 3e
       0.17289554 -0.66857773 -0.2704397 0.38058126
000070 c3 1a 86 3d 46 52 5b 3e ba ca 95 3e cb 11 29 be
       0.06548073 0.21418104 0.2925623 -0.16510694
000080 db 9e 94 be 2a 06 bb be 58 f2 84 3f 8d c0 b1 3e
       -0.29027447 -0.3652814 1.0386457 0.34717217
000090 1f 84 a5 be 87 fb fc bd 87 89 7c be 7a 59 ee 3e
       -0.32327363 -0.123526625 -0.24661838 0.4655264
0000a0 9d 06 25 3f 55 d8 11 bf c2 b7 b8 bd 98 de 11 bf
       0.64463216 -0.5697072 -0.09019424 -0.56980276
0000b0 3b e7 11 bf c0 3c ae be 81 2e 09 3f 41 23 f6 3e
       -0.56993455 -0.34030724 0.53586584 0.48073772
0000c0 8e 16 d2 bd 37 78 83 3e 99 c7 88 3d 21 ae c9 be
       -0.10258208 0.25677654 0.06678695 -0.39390662
0000d0 b0 b9 19 bf 0d 39 11 bd 0f ab 6e 3e ca 70 45 3e
       -0.6004896 -0.0354548 0.23307441 0.19281307
0000e0 76 b7 9a be 64 3d 0b 3e 07 57 49 be 00 7f ab 3a
       -0.30218095 0.13597637 -0.19662105 0.0013084114
0000f0 8c 77 bc 3e ee 6e e0 bd 69 31 02 3f d9 40 23 3f
       0.36809957 -0.10958658 0.50856644 0.63770825
000100 f5 71 92 be 45 fe 12 3f 47 38 3e 3d c1 c9 f3 3e
       -0.28602567 0.57419235 0.04644039 0.47614864
000110 3e 6b bd be 1e 79 44 be a7 09 dc 3e 69 63 99 bd
       -0.36995882 -0.19186828 0.42976114 -0.07489664
000120 fa 44 1e 3f 81 ae f5 3e 5a a6 d6 3e 14 1c 92 be
       0.61824 0.47984698 0.4192379 -0.28537047
000130 88 98 99 bd c4 c8 b1 3e e6 a3 4c be 28 a5 73 3d
       -0.07499796 0.34723485 -0.19984397 0.059483677
000140 b0 f4 c4 3d 5b 78 ef bd 08 f9 44 be e4 6c c8 be
       0.09616983 -0.11692878 -0.19235623 -0.39145577
000150 bf 10 f5 bd 23 ab c6 3e 93 00 e7 b9 c0 2d d4 3e
       -0.11966085 0.38802442 -0.0004406018 0.41441154
000160 04 60 4d 3e 07 57 2a 3d 58 d4 b4 3b a0 86 ca be
       0.20056158 0.041586902 0.0055184774 -0.39555836
000170 f7 05 1d bf 14 ec 20 3f 8c 07 3b 3e 19 e4 26 bb
       -0.61337227 0.62860227 0.18264598 -0.0025465547
000180 e4 9c 0e 3e 0f c6 2c 3f d0 ee c3 bc 49 4d b8 3e
       0.13927037 0.67489713 -0.023917586 0.35996464
000190 64 39 11 3f ca 5f 63 3e e6 50 a7 3e 8b ab b4 be
       0.56728196 0.2220451 0.32678908 -0.35287127
0001a0 ab 57 34 be e6 b0 e8 3d fa 35 67 3d 97 bb a8 3e
       -0.17611568 0.11361866 0.05644796 0.3295562
0001b0 3b 6f cc 3e ae b8 10 be 30 d8 18 bd 2f 55 c6 3e
       0.39928612 -0.1413295 -0.037315547 0.38736865
0001c0 c4 77 6e 3f f8 b0 b9 3e 1f ea 47 3e 5e 05 1e 3f
       0.931515 0.3626783 0.19522904 0.6172694
0001d0 03 d2 fc 3e bb f1 d5 3e 95 69 ca 3e 97 84 92 3e
       0.49378976 0.41785988 0.39533678 0.28616783
0001e0 b2 84 91 3e 3f 07 cb be be d0 75 be 89 e4 cd 3e
       0.2842155 -0.39653966 -0.2400541 0.4021342
0001f0 49 ea eb 3e 15 7e ae 3e 09 3a 5a be 38 96 77 3e
       0.46077183 0.34080568 -0.21311201 0.24178398
000200 0c 14 cc 3e 39 09 8b 3e 2b 82 98 3e 62 2c 95 3e
       0.39859045 0.27155474 0.2978681 0.29135424
000210 28 90 bc 3e d2 3e ba 3e db af 99 3e 5b bc 07 3e
       0.36828732 0.36376053 0.3001698 0.13255446
000220 f4 4c da be 8d 18 b6 3e b3 c7 16 3f 3e b7 fb 3e
       -0.42636836 0.35565606 0.58898467 0.4916324
000230 89 6d f0 bd 08 bc 23 3f 6e b4 e6 3e cf b9 bc 3e
       -0.11739642 0.6395879 0.45059532 0.3686051
000240 0e b9 97 3e e6 25 c6 3e b1 59 5e 3e 62 92 13 3e
       0.29633373 0.3870079 0.21713902 0.1441131
000250 63 f7 f5 bd 34 cb 19 3e b7 5b fd be 1f 38 da be
       -0.12010076 0.15018922 -0.49484035 -0.42620942
000260 28 e9 8a 3e 25 48 0c 3e b7 71 cf 3e 0f a7 d5 be
       0.2713101 0.13699396 0.40516445 -0.41729018
000270 84 15 26 bd 29 43 c1 3e b1 44 86 3e bc 90 0b 3f
       -0.040547863 0.37746552 0.26224282 0.5451772
000280 6d 37 ec 3e 37 31 cd 3e 2f ec 29 bd f1 91 93 3d
       0.46136037 0.4007661 -0.041485008 0.072055705
000290 96 ad d1 3e 03 b0 c5 be 53 b1 d7 3e 86 3f d8 3d
       0.40952748 -0.3861085 0.42127475 0.10558991
0002a0 40 7c 24 be 43 d3 96 be c6 9a 4c 3f ec 37 db 3e
       -0.16063023 -0.29458055 0.79923666 0.42816103
0002b0 4a 99 70 3e e9 69 71 3e 21 5b 6b 3e b7 b6 ec 3d
       0.23495975 0.23575558 0.22983982 0.115582876
0002c0 61 c8 9b bd 29 88 d8 3e a3 5d 7a be 06 2e 1e 3f
       -0.076065786 0.42291382 -0.24449782 0.61788976
0002d0 30 ca ca be d3 c5 cc bc 9a 5e 26 3f 1e b2 2a bd
       -0.39607382 -0.024996674 0.649881 -0.041673772
0002e0 33 8b e3 be 9c ce e4 3e 3b e6 a4 3c 2d ee 1a 3e
       -0.44442138 0.4468888 0.020129314 0.1512992
0002f0 01 0d ab 3d de c5 a8 3d 4e 93 9a be 57 3b b5 3e
       0.0835209 0.08240865 -0.3019051 0.35396835
000300 ca c5 be 3e 3e 1b 30 be db 4c c3 be e1 7f b8 bb
       0.37260276 -0.17197892 -0.38144574 -0.0056304787
000310 2b 4f 4d 3f f2 d7 6b 3f de 5f 9c be 64 41 d9 3e
       0.80198926 0.9212638 -0.3054189 0.42432702
000320 4f 6c 6c 3e b3 61 c1 3d 8f de 46 3e a3 75 c6 3e
       0.23088191 0.09442463 0.19420837 0.38761625
000330 f0 16 cb 3e c1 7d c7 bd fe 05 2c be ee d4 fb be
       0.39665937 -0.097407825 -0.16799161 -0.4918589
000340 70 ff b4 3c d8 f5 55 3f bd 0a ae be bb 88 c2 bd
       0.022094458 0.8357825 -0.33992568 -0.094987355
000350 e4 4b 8a be 7d 22 2f 3f b6 59 ef 3d dd 0e 10 bf
       -0.27011025 0.68412 0.11687033 -0.5627268
000360 3a b8 c2 3e 9f bf 13 bf f3 d9 1a bf 41 f0 72 be
       0.3803118 -0.57714266 -0.60488814 -0.23724462
000370 05 82 51 bd b5 bc a8 bc df 15 88 be 5b d5 dd 3e
       -0.051149387 -0.020597795 -0.26579186 0.4332684
000380 a6 f5 bb 3e 18 1c 87 be 65 45 bd be 54 12 12 3f
       0.36710852 -0.2638862 -0.36967006 0.57059216
000390 ae 32 1f 3f b1 e7 05 3f 85 cc e5 bd 75 12 bb 3e
       0.62186706 0.5230666 -0.1122065 0.3653752

l1.bias f4 [8]
000000 b6 22 2b 3f 94 dc 11 3f b9 58 c8 3e 62 32 1d 3f
       0.6684984 0.569772 0.3913019 0.61405003
000010 26 aa cd 3e 2b 5f fd 3e f0 94 ff 3e 09 4b 1c 3f
       0.40168875 0.4948667 0.49918318 0.61051995

l2.weight f4 [8, 8]
000000 1d 7d 19 3f d2 10 4a be 26 e9 36 bf 44 6a 97 3f
       0.5995653 -0.19732979 -0.71449506 1.1829305
000010 e7 ed 02 3f 91 0e 02 3f cb 0d a2 be 7f d3 a5 3f
       0.5114426 0.50803477 -0.31651148 1.2955168
000020 a5 29 83 3e bc 3e 65 3f b7 84 5c 3f 5b 8e 7b bf
       0.2561771 0.8954885 0.86140007 -0.9826409
000030 45 39 a9 bd f0 01 7b bf a8 4e 02 3f fa 13 3d be
       -0.082628764 -0.9804983 0.5090127 -0.18464652
000040 1a c2 8b be 84 8b 2d bf 34 ce 02 3f f4 18 fe 3e
       -0.27296525 -0.6779101 0.5109589 0.49628413
000050 1e e0 80 3f 32 32 a6 3f f9 1c be be f4 7c c7 be
       1.0068395 1.2984068 -0.3713148 -0.3896252
000060 da 7b b5 bd b1 b4 6c 3d 1d a7 0a be 62 ff 16 3e
       -0.088615134 0.05778951 -0.13540311 0.14745858
000070 56 f5 ce 3d 24 13 b1 be c8 9b 5b be 03 ea 02 bc
       0.10105388 -0.34584916 -0.21446145 -0.007990363
000080 01 50 37 3f 9c 82 47 3f ff d6 d7 3e 9b 38 f8 be
       0.7160645 0.7793367 0.42156217 -0.48480687
000090 94 63 06 3f b3 64 5f bf 4b f3 82 3f 1f 7e 0c bf
       0.52495694 -0.8726303 1.0230497 -0.54879946
0000a0 cf f2 09 bf a2 a4 6e 3f bc 7b 13 bf af 3b 3b 3f
       -0.5388612 0.9321996 -0.5761068 0.73137945
0000b0 8f f9 8a 3e b5 8d 9f bd fc ff 13 3e 87 87 aa 3f
       0.27143523 -0.077907 0.14453119 1.332261
0000c0 29 dc 70 3f 84 72 6e bf 19 e6 62 3e 69 b6 02 3e
       0.9408594 -0.93143487 0.22158088 0.12764896
0000d0 78 b5 9c 3f e4 5a 1a 3f 33 86 19 3f f1 22 2a bf
       1.224288 0.6029494 0.59970397 -0.66459566
0000e0 43 a6 89 bf be 07 5f 3e 79 98 4c bf 3c 3e 91 3e
       -1.0753864 0.21780297 -0.79920155 0.28367794
0000f0 8d ae 67 3f 79 4b 54 3f 5f a0 2a 3f e2 cd 86 3e
       0.9050072 0.8292766 0.66650957 0.2632895

l2.bias f4 [8]
000000 36 93 1a 3f b4 3e bc 3e df 9c 0d 3f 09 82 9e be
       0.60380876 0.3676659 0.5531749 -0.30958584
000010 a5 f6 df 3e 6f 9b fa 3e c5 dc 88 3e 0d e8 03 be
       0.43742862 0.4894671 0.26730934 -0.12881489

l3.weight f4 [5, 8]
000000 8d 2b 0f bf e1 6a 73 3f 7e 15 21 bf d6 f8 9f 3e
       -0.5592583 0.9508496 -0.6292342 0.31244534
000010 87 6b d2 3e 8c 51 13 bd 23 c9 8f bf 56 d3 17 3f
       0.41097662 -0.03596644 -1.1233257 0.5930685
000020 58 56 bb be f6 cf 20 3e b2 1c 91 bf d7 71 71 be
       -0.36589313 0.15704331 -1.1336882 -0.23578583
000030 29 02 07 3f f2 5c 8f bf e6 a5 25 3f 03 c7 5c bf
       0.5273767 -1.120024 0.64706266 -0.8624117
000040 b5 f3 1e 3f 62 ca 56 bf af 07 5d bf 10 8b df bd
       0.6209062 -0.8390256 -0.8633985 -0.10915196
000050 01 34 e3 be 2d 0a 30 3f aa e7 99 bf 0b bf c4 bf
       -0.44375613 0.68765527 -1.2023823 -1.5370802
000060 f6 72 a5 3b f0 a4 4d bf 95 a7 44 3f 04 7e 92 3e
       0.005049105 -0.803298 0.7681821 0.28611767
000070 9c 79 e6 be 99 1e 60 bf b0 47 6a 3f a3 ee 39 bf
       -0.45014656 -0.8754669 0.91515636 -0.72629756
000080 ed 8e 96 bd b9 4c fd be b7 80 dd 3e 79 df 9e 3e
       -0.0735148 -0.49472597 0.43262264 0.3102987
000090 0b 34 87 bf b8 7a 84 3e 82 fb 96 be 30 63 52 3f
       -1.0562757 0.25874877 -0.2948876 0.821826

l3.bias f4 [5]
000000 b4 94 17 3e b9 08 18 bf 11 b2 cd 3e e3 89 b5 3e
       0.1480282 -0.5938831 0.40174916 0.35456762
000010 a6 28 0e bf
       -0.55530775
