data.pth (torch, 4183 bytes, 6 tensors)

l1.weight f4 [8, 31]
-0.38281056 0.00024457276 0.09425476 -0.23582475 0.16688748 0.21907635 1.3239379 0.35620505
-0.5939292 -0.057660375 -0.2464924 0.17279449 -0.4087279 0.77915895 -0.18309638 -0.1279453
0.044774618 0.009073317 0.13562226 0.55453396 0.479193 0.14869292 -0.19695733 -0.100135185
-0.5441738 -0.35084233 -0.26476258 -0.7350645 -0.1469528 0.24694566 0.09265374 -0.03821068
-0.1491223 -0.00027878626 0.20841198 -0.015649533 0.13878214 -0.8903579 1.5339009 0.7019162
0.17834559 0.102556676 0.026924033 1.1203023 0.25308827 0.13274221 -0.18863352 0.1432067
0.1259574 -0.1162519 -0.07837279 0.1934354 0.061302565 0.699538 -0.08555731 0.27243832
0.39372432 0.6093566 -0.55028003 -0.010634917 0.06423142 0.3213661 0.643846 0.40392202
0.52444035 -0.16373105 0.5790523 -1.0295242 2.0283926 0.24460417 -0.9088103 0.6972537
0.046626937 0.5971289 -0.8586257 0.26376253 0.9048215 0.7213217 0.8674715 0.93138385
0.5736676 0.3611481 0.24799357 0.34643012 -0.45000586 0.6148965 -0.14347182 -0.23069635
-0.6014987 1.1088117 0.4262885 0.50053793 0.50799054 0.6841579 0.3040561 0.5094981
0.053405534 0.5713153 0.2963884 -0.66925687 -0.6774562 -0.5314551 0.38139573 0.16136643
0.46024016 -0.3844051 -0.5267871 0.6827118 0.44660935 0.6978131 0.96527886 0.544057
-0.41067296 -0.11679883 0.6232664 -0.34080723 0.1547945 0.2871217 0.35967585 -0.45730522
0.7354907 0.6653316 0.28401035 0.35774782 0.7625493 0.24009086 0.093325235 0.7128522
-0.009126574 -0.5119851 -0.2635461 -0.6319262 0.27282295 0.2392215 0.8848878 0.18539037
0.027135026 0.24544878 -0.013188731 0.34082448 0.21140106 0.1182902 -0.016397737 0.18222119
0.09823595 0.3733326 0.035352718 0.34326497 1.23839 1.4832541 0.13550712 1.1143373
0.51813406 0.13174392 0.44365323 -0.26263255 0.09915058 -0.14877361 -0.29880044 -0.36106926
0.94117904 0.80793726 -1.4229399 0.6847504 -0.46457833 -0.5493654 -0.31832817 0.80090255
0.422313 -0.7119635 -0.22406101 -0.7804745 -0.7532165 -0.2447072 0.31037673 0.17361853
-0.26882902 0.58817464 -0.020242201 -0.79043525 -0.87273467 0.3963631 -0.779663 -0.2934854
-0.362234 -3.9245544e-05 0.14878371 0.11237735 0.39806816 -0.25535572 0.6853218 1.5163616
-1.0220146 0.60773546 -0.82368433 0.56747055 -0.049714237 0.64304847 -0.67731065 0.49284595
0.6632036 0.031066308 0.77771825 0.88927513 0.5528471 0.771287 0.2520195 0.6082574
-0.29037514 0.38185388 -0.43181276 -0.15506323 -0.46493098 -0.27462837 -0.2240833 0.49530226
0.10247967 0.009707411 0.33278957 -0.22312999 0.21726727 -0.4760266 -1.2974656 1.8930781
0.5977091 0.88496506 -0.3353745 0.18035313 -0.3489161 0.8984519 0.28314364 -0.6835601
0.0992152 -0.6836238 -0.68343085 -0.40423083 0.41104814 0.13952452 -0.31488013 0.46678522
0.27195227 0.33035284 0.43369624 0.62507993 -0.46709168 -0.19750221 -0.14554656 0.19650772
00000000: bfff c3be 003a 8039 a408 c13d 0b7c 71be
00000010: 8de4 2a3e 8d55 603e cc76 a93f 8260 b63e
00000020: be0b 18bf 492d 6cbd 8168 7cbe 0af1 303e
00000030: c944 d1be f676 473f 9e7d 3bbe 1804 03be
00000040: 9765 373d 40a8 143c 90e0 0a3e f0f5 0d3f
00000050: c958 f53e f542 183e 2faf 49be ad13 cdbd
00000060: f94e 0bbf 9ba1 b3be f68e 87be 302d 3cbf
00000070: cb7a 16be 53df 7c3e 3ec1 bd3d cd82 1cbd
00000080: 84b3 18be 0f2a 92b9 f369 553e 7333 80bc
00000090: e81c 0e3e 7fee 63bf dd56 c43f c8b0 333f
000000a0: 3aa0 363e 3c09 d23d ca8f dc3c 1166 8f3f
000000b0: c994 813e 93ed 073e 2529 41be c7a4 123e
000000c0: fafa 003e 7a15 eebd ea81 a0bd ee13 463e
000000d0: 6618 7b3d ec14 333f ac38 afbd 097d 8b3e
000000e0: 3c96 c93e cbfe 1b3f 27df 0cbf 133e 2ebc
000000f0: c38b 833d 198a a43e 17d3 243f dece ce3e
00000100: b941 063f 1da9 27be c63c 143f 73c7 83bf
00000110: 2fd1 0140 8479 7a3e cba7 68bf 387f 323f
00000120: e3fb 3e3d 71dd 183f e5ce 5bbf e20b 873e
00000130: 62a2 673f 8aa8 383f 9d12 5e3f 2c6f 6e3f
00000140: e1db 123f 67e8 b83e 07f2 7d3e 4a5f b13e
00000150: 2b67 e6be db69 1d3f 47ea 12be aa3b 6cbe
00000160: d2fb 19bf 8bed 8d3f 7c42 da3e 4123 003f
00000170: ab0b 023f f924 2f3f 3ead 9b3e 786e 023f
00000180: c3bf 5a3d b841 123f 38c0 973e 6b54 2bbf
00000190: c56d 2dbf 710d 08bf 4d46 c33e 3e3d 253e
000001a0: 99a4 eb3e bfd0 c4be 85db 06bf 33c6 2e3f
000001b0: fba9 e43e e1a3 323f 841c 773f 5247 0b3f
000001c0: ba43 d2be 3a34 efbd 638e 1f3f 497e aebe
000001d0: 7382 1e3e 9e01 933e 6f27 b83e e923 eabe
000001e0: 1e49 3c3f 2c53 2a3f ce69 913e b92a b73e
000001f0: 6e36 433f 61da 753e 4d21 bf3d 7b7d 363f
00000200: a087 15bc 7511 03bf 84ef 86be eac5 21bf
00000210: 73af 8b3e 7bf6 743e 0288 623f f9d6 3d3e
00000220: 464a de3c ed56 7b3e 8c15 58bc 8c80 ae3e
00000230: 8579 583e 2242 f23d 8c54 86bc 3198 3a3e
00000240: ee2f c93d 7325 bf3e 03ce 103d 6dc0 af3e
00000250: 9083 9e3f 45db bd3f 61c2 0a3e 9ba2 8e3f
00000260: 6fa4 043f e1e7 063e 8426 e33e c677 86be
00000270: 760f cb3d 1c58 18be 5ffc 98be 12de b8be
00000280: 1cf1 703f fad4 4e3f e522 b6bf cd4b 2f3f
00000290: 36dd edbe 36a3 0cbf e9fb a2be f307 4d3f
000002a0: 6939 d83e 3d43 36bf 4070 65be 2dcd 47bf
000002b0: ccd2 40bf 8694 7abe b3e9 9e3e 0ec9 313e
000002c0: f5a3 89be 9d92 163f f9d2 a5bc f759 4abf
000002d0: 8a6b 5fbf 1bf0 ca3e ff97 47bf b843 96be
000002e0: bc76 b9be 959b 24b8 c25a 183e 1926 e63d
000002f0: 97cf cb3e fcbd 82be 4071 2f3f 2318 c23f
00000300: 60d1 82bf 8d94 1b3f fadc 52bf c045 113f
00000310: 28a1 4bbd d39e 243f 3b64 2dbf 4e56 fc3e
00000320: b6c7 293f c57e fe3c 8b18 473f 89a7 633f
00000330: 6387 0d3f 1173 453f b308 813e c2b6 1b3f
00000340: 0dac 94be 5a82 c33e 9016 ddbe e5c8 1ebe
00000350: 6f0b eebe 179c 8cbe 1876 65be 4298 fd3e
00000360: dce0 d13d d50b 1f3c 6563 aa3e 307c 64be
00000370: 507b 5e3e c2b9 f3be 5a13 a6bf 6250 f23f
00000380: 7703 193f 128d 623f 35b6 abbe 7eae 383e
00000390: 22a5 b2be f200 663f 34f8 903e cbfd 2ebf
000003a0: 5731 cb3d f801 2fbf 53f5 2ebf 58f7 cebe
000003b0: e774 d23e 84df 0e3e f837 a1be 79fe ee3e
000003c0: 543d 8b3e 0224 a93e 6f0d de3e 3d05 203f
000003d0: a426 efbe 053e 4abe 280a 15be 5239 493e

l1.bias f4 [8]
0.8333896 0.22872394 1.0026001 0.6760393 0.6320722 0.7797464 0.9826268 0.6837549
00000000: 0559 553f 9c36 6a3e 3355 803f e910 2d3f
00000010: 7ccf 213f 769d 473f 6e8d 7b3f 900a 2f3f

l2.weight f4 [8, 8]
-0.17002507 -0.27435666 0.26784152 0.001266412 -0.08338006 0.0143013 -0.26245046 -0.06972636
0.077471614 -0.29180306 1.1311556 1.573059 1.5697576 -0.79330724 1.5438485 -0.83138216
0.17402701 0.81483513 0.85336137 -0.60928494 0.8352281 0.16334169 -0.8343676 1.8971723
0.93959206 -0.9171289 1.5419523 0.012535304 -0.37379307 -0.37145385 0.19883764 0.51853156
0.38223317 -0.5741127 -0.68644315 -0.35633326 -0.47811 0.9970958 1.0467377 -0.4133786
-0.52910525 0.6623207 -0.73093563 0.34089178 1.0486386 1.872328 -0.1523998 0.47262302
0.5667825 -1.3014628 0.38057625 -0.08272492 0.7650482 1.535615 -0.90264827 1.2302432
1.7732991 1.0741078 0.12564158 -0.48068187 -0.95611733 1.3071104 1.5511292 1.1111176
00000000: 0d1b 2ebe 7a78 8cbe 8622 893e bcfd a53a
00000010: 2ac3 aabd 0050 6a3c e85f 86be b2cc 8ebd
00000020: 70a9 9e3d 3667 95be b5c9 903f ff59 c93f
00000030: d1ed c83f 2f16 4bbf d49c c53f 76d5 54bf
00000040: 2334 323e 0999 503f e475 5a3f 19fa 1bbf
00000050: 82d1 553f 0b43 273e 1d99 55bf 8bd6 f23f
00000060: 1b89 703f f6c8 6abf b15e c53f e060 4d3c
00000070: ce61 bfbe 332f bebe 189c 4b3e 7cbe 043f
00000080: 11b4 c33e 0df9 12bf bdba 2fbf 5071 b6be
00000090: d5ca f4be ac41 7f3f 80fb 853f 5ca6 d3be
000000a0: 7173 07bf d98d 293f 991e 3bbf 5e89 ae3e
000000b0: ca39 863f 72a8 ef3f b10e 1cbe a5fb f13e
000000c0: a818 113f 5596 a6bf e4da c23e af6b a9bd
000000d0: 33da 433f 088f c43f f513 67bf 9c78 9d3f
000000e0: 77fb e23f 5d7c 893f 30a8 003e ef1b f6be
000000f0: 1bc4 74bf 654f a73f 678b c63f 1a39 8e3f

l2.bias f4 [8]
-0.34187102 0.91295767 0.18193047 0.3692325 0.26115268 0.51240516 0.46305397 0.57069445
00000000: b809 afbe 98b7 693f fb4b 3a3e 0b0c bd3e
00000010: ceb5 853e fc2c 033f 6915 ed3e 0819 123f

l3.weight f4 [11, 8]
0.089244865 -0.112962276 -0.80201524 0.05781766 0.18446578 0.055781264 0.321588 0.22872913
-0.4003767 0.097266406 0.40930167 -0.82906485 -0.53137076 0.33179373 0.3971853 -2.4066505
0.1138242 -1.1576844 -0.110693775 0.3903531 -0.5123222 -0.4237979 0.6788588 0.10411677
-0.10166848 -0.29465255 0.48502427 0.020202767 -1.3368832 -0.7726922 0.6974925 -0.9924729
0.16051957 -0.58678985 -2.396995 -0.22456357 1.291304 0.3183612 -0.2593062 0.5291356
-0.021739487 0.7243073 -0.4996906 -1.3829256 -0.40266228 0.24063183 -1.8668722 -0.9730493
-0.11733483 -0.35459238 -0.09446675 0.3722314 -0.5418484 -1.0855287 -1.4171339 0.549432
-0.22914322 -0.20111512 0.500607 -1.5031228 -0.8152943 0.5150504 -1.2524152 -0.40752095
0.22590971 -1.9551381 0.14933199 -0.59594446 -1.1064802 0.7930079 0.25301212 0.18025061
0.21996745 0.78355825 -1.1032131 0.3217894 -1.7730515 -1.9128491 -1.5114498 -0.15634155
-0.2846294 0.75692916 0.15374766 0.42874125 -0.9078121 -1.3251287 -0.32144168 -2.2277813
00000000: 03c6 b63d c458 e7bd df50 4dbf 36d2 6c3d
00000010: 99e4 3c3e e57a 643d 2fa7 a43e f837 6a3e
00000020: 2dfe ccbe 9c33 c73d fd8f d13e 983d 54bf
00000030: ea07 08bf dee0 a93e df5b cb3e 9006 1ac0
00000040: aa1c e93d 012f 94bf 6bb3 e2bd 5ddc c73e
00000050: 8c27 03bf 0afc d8be b1c9 2d3f 2c3b d53d
00000060: 9037 d0bd b3dc 96be 1a55 f83e 4680 a53c
00000070: fd1e abbf 28cf 45bf de8e 323f b412 7ebf
00000080: 3e5f 243e dc37 16bf 5e68 19c0 fef3 65be
00000090: 7349 a53f 3d00 a33e c8c3 84be 6e75 073f
000000a0: 0217 b2bc 346c 393f 72d7 ffbe b503 b1bf
000000b0: c029 cebe 3168 763e abf5 eebf c219 79bf
000000c0: 3e4d f0bd 228d b5be c977 c1bd 1d95 be3e
000000d0: 94b6 0abf 9bf2 8abf a564 b5bf 93a7 0c3f
000000e0: 85a4 6abe 1ff1 4dbe c827 003f 5466 c0bf
000000f0: 21b7 50bf 58da 033f 244f a0bf 96a6 d0be
00000100: e054 673e f741 fabf 7cea 183e d18f 18bf
00000110: 25a1 8dbf 9102 4b3f ce8a 813e 9e93 383e
00000120: 263f 613e 4697 483f 1636 8dbf 95c1 a43e
00000130: 5af3 e2bf 3dd8 f4bf 3077 c1bf 0018 20be
00000140: f2ba 91be 1cc6 413f 0770 1d3e f983 db3e
00000150: 6066 68bf d19d a9bf 0194 a4be f893 0ec0

l3.bias f4 [11]
0.1107578 -0.16944519 -0.7208168 -0.044616554 -0.055208813 0.4317274 -0.047818184 0.32782486
0.1188969 0.42565358 0.14440528
00000000: fcd4 e23d 0a83 2dbe 7387 38bf d9bf 36bd
00000010: a322 62bd 600b dd3e 00dd 43bd a9d8 a73e
00000020: 3880 f33d 44ef d93e fade 133e
