data.pth (torch, 3991 bytes, 6 tensors)

l1.weight f4 [8, 30]
00000000: b3df 163f 4cc3 8b3e 91e2 683e 90c3 20be
00000010: 0dda 8f3e b89f 073f 03e4 19bf 4a4c da3b
00000020: 134b f13d af06 0c3e d3b5 8d3e 6801 d23d
00000030: 4b0c d93d 299f 623e fa6d 983e 9836 da3d
00000040: 75bf a33e 3896 39bc e93f cd3d d6f3 63bd
00000050: 9963 823e 1a8d 68bc 93c8 0c3e 9c39 5bbe
00000060: b732 5ebe 3c02 3dbe 0d71 5b3f c8bc f13e
00000070: 0500 8e3e 7060 f93e c9e3 193f ee2b ec3e
00000080: 2844 d43d 2f9a d5be 3125 8fbe 8dfa d9be
00000090: 8fba 043e 65c7 323f 1fc9 533d e93e a0bd
000000a0: c00e df3d 3d3d 453f fa61 8e3e 1e3a ffbd
000000b0: de9a 9f3e 6b2e b13d 4a4a cdbe 8dca 53be
000000c0: 3a24 c73e 544b da3e 2471 78bd 72c3 063f
000000d0: 874f 603e 3e99 fdbe e69a 2bbf da91 c23e
000000e0: ecc5 153f d46e c13e 441f 18be ecac 103f
000000f0: 6844 abbc 00f9 80bd 40b4 1b3c 1ee8 303e
00000100: c458 38be 2fdd a4bd 50e9 78bd d357 bdbd
00000110: 80d9 adba 8fc1 33be 2067 5b3d 78f5 a6bc
00000120: afda 26be 99c5 9dbd 54b6 6dbd f0de 30be
00000130: bcd0 223d 9aaf 7abd 087c c83d b45c 12bd
00000140: 50df 933d 9875 003e 4067 2dbd 386b 8c3c
00000150: 84f1 ac3d f893 ff3d 386c 1f3d 1e6a 04be
00000160: bcd7 fabd c861 d2bd dace 9abe f031 f7bc
00000170: a389 b13d d0c3 c83e fd36 2a3e fb08 d0be
00000180: 0a80 9f3f f601 273f 5b3c 37be aac1 ae3e
00000190: 4f1c a83c 1b2b 5d3f 4409 a43e 49e8 b9be
000001a0: ed51 c4be 4be0 b3be 34ff babe 8cdb 74bd
000001b0: 82bb fe3e e499 4f3e 8484 c23d 66a2 233f
000001c0: 1c04 06be 26e7 df3e c10f 1f3f dd96 293f
000001d0: c8ac 54bf 7b95 14be 118d 2cbe 01ff 903c
000001e0: 9d32 42be bd22 c03d 5263 4c3e a56a 1d3f
000001f0: 533b e33e 7908 03bf 0dd4 863e f5d4 bebe
00000200: 22b4 d03e 7812 d13e 0099 083f 4a05 ecbe
00000210: 63d9 81be 58b2 1e3f 4c1d f1bd c584 263f
00000220: 1208 c93e 4e50 783e 3b16 68be 5273 133e
00000230: 7e04 5c3e 2d8c 26be 2b40 11be d8f9 4a3f
00000240: fe4a 303f c660 21be 97a8 00bf f45f b7bd
00000250: 4189 993e 966c a13d 5d26 e43e 3910 003e
00000260: 5d1d 103d b953 ae3e 350e dfbd 93eb 873f
00000270: b87b 13bf 9766 00bf a347 6d3e ebdb c53e
00000280: 217f 093e e3d3 f3be b4da 5f3e 6c31 6f3e
00000290: 9935 f53d bfd5 893e 3fa7 8fbd 640c 0a3e
000002a0: 2c96 ce3e 5f5f 0a3e 96e2 143e c125 d1be
000002b0: f99c 193e ebfb ef3e 6aac 1b3f 8dab 5fbe
000002c0: 40ee f93e 1074 713e a417 25be 3163 263e
000002d0: 1c88 08be c3dd f1bd dcde 2c3e 556b b13e
000002e0: 014f c23e a854 8cbe 1368 1ebf f89c 17bf
000002f0: 3271 913e c3ad 953e cac9 ce3e 8570 1ebf
00000300: 1f7d 68be a9ef 063f a53e 4ebd a78b 143f
00000310: 317e 243f b175 043f 9b4a 52be c90b 9cbb
00000320: e81b f93e 1571 82be cc8e 94bd 48c1 353f
00000330: 3f6f 1b3f b431 03bf 6a78 cfbe b31d a0ba
00000340: 2606 f33e 11ba 243e 8f63 e9bd 9572 3ebc
00000350: 13c1 32bd 4e39 933e 9e3d 43be e283 873f
00000360: eb04 623f 0fe3 17bf 0798 b4be 0abd 893e
00000370: 6ad7 4bbe 61de 17bf d672 363f d766 dfbe
00000380: d22e e8bd 3c09 bbbe ec91 f6be 1cda 24bd
00000390: 65ff 463f 7432 be3e ad73 9bbe a5d8 19be
000003a0: 6055 eebd 9572 f73e 72ee 8d3e cd38 a5bd
000003b0: cee9 17bf 734b bbbe 5cb1 94bd 1e7f b9be
0.5893509 0.27297437 0.22742678 -0.15699601 0.28096047 0.52978086 -0.60113543 0.0066619264
0.117818974 0.13674425 0.27677783 0.102541745 0.10598048 0.22131027 0.29771405 0.10654944
0.31982008 -0.011327319 0.100219555 -0.055652462 0.25466612 -0.0141937975 0.13748388 -0.21408695
-0.21699034 -0.18457884 0.85719377 0.4721434 0.2773439 0.48706388 0.601132 0.46127266
0.10364562 -0.41719195 -0.27958062 -0.42573968 0.12961791 0.698355 0.051705476 -0.07824499
0.10891485 0.7704657 0.27809125 -0.12462257 0.31172842 0.08651432 -0.4009574 -0.20682736
0.38894826 0.42635596 -0.060654774 0.52641976 0.21905337 -0.49530977 -0.6703323 0.380019
0.5850513 0.37779868 -0.14855677 0.5651386 -0.020906642 -0.06297493 0.009503424 0.17276046
-0.18002611 -0.0805 -0.06076938 -0.09245267 -0.0013263673 -0.17554305 0.053565145 -0.02038072
-0.16294359 -0.077037044 -0.05803521 -0.17272544 0.039749846 -0.061202623 0.09789282 -0.03573294
0.07220328 0.12544858 -0.042334795 0.01714097 0.08444503 0.12479395 0.038921565 -0.12931105
-0.12248179 -0.102725565 -0.3023594 -0.03017518 0.0866883 0.39211893 0.16622539 -0.40631852
1.246095 0.6523737 -0.17894118 0.3413213 0.020521311 0.863939 0.3203832 -0.36310032
-0.38343754 -0.3513206 -0.3652283 -0.05977969 0.49752432 0.20273548 0.094979316 0.63919675
-0.13087505 0.4373104 0.62133414 0.66245824 -0.83076143 -0.14510147 -0.16850688 0.01769972
-0.1896462 0.09381626 0.19959763 0.6149085 0.44381198 -0.51184803 0.26333657 -0.37271848
0.4076243 0.40834403 0.5335846 -0.46097785 -0.25361165 0.6199088 -0.11773166 0.6504634
0.3926397 0.24249384 -0.2266473 0.1439946 0.21486089 -0.1626441 -0.14184634 0.7928748
0.6886443 -0.15759572 -0.5025725 -0.089538485 0.2998753 0.07882039 0.4456052 0.12506188
0.035184253 0.3404825 -0.10891382 1.0618767 -0.57610655 -0.5015654 0.23171858 0.38644347
0.13427402 -0.47622594 0.21860772 0.23358697 0.119731136 0.26920888 -0.070143215 0.13481289
0.40348947 0.13512944 0.1453956 -0.40849116 0.15001287 0.46871886 0.6080996 -0.21842785
0.48814583 0.2357943 -0.161223 0.16248776 -0.13333172 -0.11809876 0.16881889 0.346522
0.379509 -0.27408338 -0.61877555 -0.5922389 0.28406674 0.29234132 0.40388328 -0.6189044
-0.2270398 0.5270944 -0.05035271 0.5802559 0.6425505 0.5174208 -0.20536272 -0.004762147
0.48654103 -0.254769 -0.07253799 0.7099805 0.60716623 -0.51247716 -0.40521556 -0.0012215882
0.47465628 0.16086604 -0.113959424 -0.011623998 -0.04364116 0.28754658 -0.19066474 1.0587122
0.88288754 -0.5933084 -0.35272238 0.26902038 -0.19906393 -0.593237 0.71268976 -0.43633148
-0.11337055 -0.36530483 -0.48158205 -0.040247068 0.7773345 0.37147868 -0.3036169 -0.1502405
-0.11637378 0.48329607 0.27720982 -0.080674745 -0.5934113 -0.36581 -0.07260391 -0.36229795

l1.bias f4 [8]
00000000: b14d 1b3f 4298 843f a735 2ebe 28b3 543f
00000010: 9506 033f 9e6f 003f c86c 1e3f 9edd 173f
0.6066542 1.0358965 -0.17012654 0.8308587 0.5118192 0.50170314 0.61884737 0.59322536

l2.weight f4 [8, 8]
00000000: 58e6 703f cee2 2e3f 7b01 90be 4ed1 3a3e
00000010: b142 213f c44b f2be d9d8 0d3f 365b 51bf
00000020: d6c4 873f 1e4e 473f 466a 803e 4aae fabd
00000030: bcd6 71bf fc1e 173f c65e 2dbf 8fa5 46be
00000040: ba7b 8c3f da7d 303e 7d67 8a3e 3935 34bf
00000050: 9df9 9abd 60b8 913f b7db 263e d424 c23e
00000060: 6918 6fbd aa00 52bf 79bc 4dbe e4d5 393f
00000070: adf8 873f 88be 843f 0af7 463f 9ea2 8c3f
00000080: 30d0 53bf 9352 bf3e c085 c2bd 2250 ae3f
00000090: eb8e 933f bcf4 043e 47da b03e 4e33 a33e
000000a0: 0328 a43e b011 26be 208e a9bd 800c 4fbe
000000b0: edf5 6fbf f30b 753f 0603 8d3e 4f85 2d3f
000000c0: ab2e 993f 1293 583f 8b2e 8b3e 7583 dfbe
000000d0: d4c3 603f b62b 673f 70cf 7d3f a8f4 4fbf
000000e0: 8318 3e3f 229b bf3f 4e4b 8abe 7247 123f
000000f0: 1d4c 6dbf 48c3 81be ac56 7cbf 9e64 0a3f
0.94101477 0.68314826 -0.2812613 0.18243906 0.6299239 -0.4732343 0.5540901 -0.817798
1.0606945 0.7785357 0.2508108 -0.12240274 -0.94468284 0.59031653 -0.6772274 -0.19399093
1.0975258 0.17235509 0.2703208 -0.7039371 -0.07567141 1.1384392 0.16294752 0.37918723
-0.05837289 -0.82032263 -0.20091428 0.72591996 1.0622765 1.0370646 0.777207 1.0987127
-0.82739544 0.37367687 -0.09498167 1.3618205 1.152799 0.12983984 0.34541532 0.3187508
0.32061777 -0.16217685 -0.08279061 -0.20219612 -0.9373463 0.9572136 0.2754137 0.6778154
1.1967367 0.8459941 0.27183947 -0.4365498 0.8779881 0.9030107 0.9914465 -0.8123269
0.7425615 1.4969218 -0.27010578 0.57140267 -0.92694265 -0.253443 -0.9856975 0.5405978

l2.bias f4 [8]
00000000: 8389 043f 10d7 b73e 929a a03d aa4e 5a3e
00000010: 81df c83e 9fbc b4bd af46 dd3e a0b1 243f
0.51772326 0.35906267 0.07841982 0.2131907 0.3923302 -0.08825039 0.4321799 0.64333534

l3.weight f4 [7, 8]
00000000: a0dd 67bf b4d2 773e 9f22 283f 9d10 513e
00000010: 5ead 72bf 9597 3a3f 8fac d7be 4aca c53e
00000020: d349 6dbf 45e2 9cbf 8792 d23e a4db a33e
00000030: 6b38 2a3e 4c79 493f ce1e 7ebe de2a 95bf
00000040: 1aef adbe 804e 9cbf e213 89bf 64ff 983d
00000050: f11c 0c3f de35 a13e 4d57 94bf 276c 4d3f
00000060: 85eb 5abe 2e7c 4fbf e13b 9dbf a5fb 333f
00000070: 8454 153f 9784 6ebf f982 27bf 12ef 84bf
00000080: 4f41 1d3f a4b1 ae3e 270f afbf 62bf b0bf
00000090: 2292 3f3e 6a03 3ebf 6709 3fbe 61c2 513f
000000a0: 1a58 523f f382 85bf 94e2 60be 78b1 16be
000000b0: 6490 163d da83 88bf 09d3 623f 471b 70bf
000000c0: 3130 3f3e aac3 eb3e e70a 433f 73d6 97bf
000000d0: 1a81 b6bf 63ca c8be b38b 673e e153 eb3e
-0.9057255 0.2420147 0.6567783 0.20416494 -0.9479579 0.72887546 -0.4212384 0.38630897
-0.9269077 -1.2256552 0.41127416 0.3200351 0.16623084 0.7870071 -0.24816439 -1.1653707
-0.33971483 -1.2211456 -1.0709193 0.07470587 0.5473166 0.3148641 -1.1589142 0.8024315
-0.21378906 -0.8104886 -1.2283899 0.70305854 0.58332086 -0.93171066 -0.65434223 -1.0385458
0.6142778 0.34119904 -1.3676499 -1.3808405 0.18708089 -0.7422396 -0.1865593 0.81937224
0.8216568 -1.0430588 -0.21961433 -0.14716136 0.036758795 -1.0665238 0.88603264 -0.9379162
0.18670727 0.46047717 0.7618851 -1.186232 -1.4258149 -0.3921691 0.22611885 0.45962432

l3.bias f4 [7]
00000000: a411 80be 38bd cebd ac20 0f3f c543 83be
00000010: 494f 613e ab60 503e 539d 6ebe
-0.2501346 -0.10094684 0.5590923 -0.25637642 0.22002901 0.20349376 -0.23302202
