data.pth (torch, 5015 bytes, 6 tensors)

l1.weight f4 [8, 54]
00000000: 1699 3bbe dbba e0bd 74f9 74be 9d6e 9fbe
00000010: 9916 8b3d c6c5 50bd 554a 8dbd 5036 23be
00000020: 52fe 0ebe 93fb 95be 2ab1 33be e347 0c3f
00000030: 97e1 033f d789 293f 369d 9dbd 9f93 843e
00000040: e145 f3bd 4f2c b0bd f228 063f 1ab2 96be
00000050: b6f1 81bc bae6 96be fddd 96be 7368 053e
00000060: d4ce 043e 7f97 93be 96d4 433f f3ea ba3c
00000070: 0ca4 c23e fb47 77be 1017 0fbe d892 1e3f
00000080: d4c2 abbc 3c48 97be e5e2 c33d c358 b73e
00000090: 5976 1c3f 2bb8 2abe ab82 09be 57d6 d2bc
000000a0: 7bda 98bb ab94 413f c11b ee3e 9b0a a63c
000000b0: 9d41 963e 8f94 ae3d f98d e2be a815 cebd
000000c0: 20be e73e ab46 5a3f 3e52 a73e e8c5 253f
000000d0: f5af 0abd 8bfe 243e 0239 133f 15c5 293f
000000e0: 7604 a23e f551 32be 0969 88be f396 ccbe
000000f0: 3a2b 793e 9c36 853d dd06 f83e bbcd 6a3e
00000100: f356 79be a2a0 1c3f bf23 b93e 294c 1b3f
00000110: d0d0 ab3e 101b af3e a0e8 e7bd b296 ccbe
00000120: affb 69bc f4e8 bdbe 65b4 eb3e 2e56 b8be
00000130: 5ef4 b5be 12e0 173d 045d fa3e 51e2 293c
00000140: 65cc cd3c b7e9 023f aaae 043f 024e b93e
00000150: 5a0b ccbe 4135 323f 6312 c83e acb3 903e
00000160: 36e4 db3e 614a 0c3f 87fe f83e f8e9 fd3e
00000170: eb8f c13d b7ee 813e 2a97 99be d5bb 143e
00000180: 0186 e33e fb9a 883e 4702 0b3f e732 083f
00000190: 4a0f 423f 2afe fb3e 97a1 a1bd 4a24 9dbc
000001a0: 4286 cd3e 15ef fb3c 5d90 5b3e fd57 a13e
000001b0: 9c98 0cbe 7c67 acbd 5d84 b2ba a8b8 a53e
000001c0: f101 ee3e b1ac 22bf b550 013e 4a97 2b3e
000001d0: 93e6 d23d e879 493e d49c 1b3f de41 a03e
000001e0: e24e 5a3e 946f 053f 7b06 073d 26a0 e43e
000001f0: 553a 083f 1eac 22bf 8514 7cbe 63e2 2a3f
00000200: 0f56 5fbe 0784 413f c4f1 203f 884e 3c3f
00000210: a4bf dd3e c923 0d3f d519 f2bd a9a6 f6bd
00000220: 5189 73be f73d 3fbe 3a0d c6be 88f0 e13e
00000230: 4848 b2bd 1863 563e c894 2d3e 497d ac3e
00000240: b79e 09be 2daa 613c 22ea b8bc 6d3b db3c
00000250: 8f34 82be b3df 96be 3484 753e 2911 f0bd
00000260: b0a2 e33e e94f 9a3d 6ddf 21bf 5d5a 8fbe
00000270: 1a87 d53e 6a17 b3be 6024 ba3e 13fe 03be
00000280: 8db1 4a3e 79fb b83b 3c65 02be 30b8 96be
00000290: 5b4d 903e 4ae2 b73e 5740 be3e 2401 04bf
000002a0: 29f0 bb3e bb6a b43e 748f 013f fdb6 cb3e
000002b0: 036d 973e 042c 4a3e 7a60 803e efeb 6d3e
000002c0: 7c3a e7bc c5b5 8b3e 37cd b23e 441a 0fbf
000002d0: 4f9c 85bd 4446 123f 2cf6 30be 0a67 d43e
000002e0: f73c cb3e acb6 4d3e fc88 d83e f60a 993e
000002f0: 46a7 8dbe 2467 bbbe 092d d2bd db2e 72be
00000300: 5eac c9be d277 063e 009b 7c3b 061e ef3e
00000310: b016 b4bd b47b 823e 7848 26be f83d f83e
00000320: 0d8e e23e ed26 ae3e c4f1 a6be e170 10be
00000330: 8035 983c 27f0 2abe 656b fa3e cc8e 84be
00000340: c05c 0fbf 5278 84be 1b99 833e d704 c4be
00000350: 62ff 8d3e b507 1bbe e134 e83e 2f46 903e
00000360: b34b ca3e c15c f1bd 1d15 0dbf 8f23 be3e
00000370: 336b 1fbd 3d14 603f 0b9b 91be 6f15 d1be
00000380: 4d1c 1dbf 8a3d efbe 292c 773e fd77 e23e
00000390: fcd0 e7bd e07e a63e 27bb 61be 7b05 b23e
000003a0: 299f 973e f55d 4b3f 38fc a43e ed0e 673e
000003b0: 8a8a a93e feec 513e 0773 0b3e a6a4 f83e
000003c0: ff86 833e 1f66 8b3e a1ee 133f 44fd c0be
000003d0: e7a9 233e 37d8 40be c0e7 103f 62b8 703e
000003e0: e898 bc3e 026e c0be 1373 cabd c6ff a83e
000003f0: a6ee ac3e 7160 c6be 21ae afbe fd2a 39be
-0.18320116 -0.1097314 -0.23923284 -0.3113908 0.067914195 -0.05096986 -0.06898943 -0.15938687
-0.13964203 -0.29293498 -0.17548051 0.5479719 0.515161 0.6622595 -0.07696001 0.25893876
-0.11878563 -0.08602201 0.5240623 -0.29432756 -0.015862327 -0.29472905 -0.2946624 0.13028125
0.12969524 -0.2882652 0.76496255 0.02281711 0.38015783 -0.24148552 -0.13973641 0.61942816
-0.020966925 -0.29547298 0.09564761 0.35809907 0.61118084 -0.16671817 -0.13428752 -0.02573697
-0.004664717 0.75617474 0.4650555 0.020268729 0.29346934 0.08524429 -0.44248942 -0.10062724
0.4526224 0.8526408 0.32679933 0.64755106 -0.033859212 0.16112725 0.5750886 0.6631635
0.31644028 -0.17414077 -0.26642635 -0.39958915 0.24332896 0.065045565 0.48442736 0.22930042
-0.24349575 0.61182606 0.36160085 0.60663086 0.3355775 0.34200335 -0.113236666 -0.3995872
-0.014281197 -0.37091792 0.46036068 -0.3600325 -0.35538 0.037078924 0.4889909 0.010368899
0.025121877 0.5113787 0.51829016 0.36192328 -0.3985241 0.6961251 0.39076528 0.2826208
0.4294755 0.54800993 0.4863169 0.49592566 0.09451278 0.25377437 -0.29998142 0.14524777
0.44438174 0.2668074 0.5430035 0.5320267 0.7580458 0.4921735 -0.07892149 -0.019182343
0.40141493 0.030753652 0.21441789 0.31512442 -0.13730091 -0.084181756 -0.001361977 0.32367444
0.46485856 -0.63544756 0.12628444 0.16756931 0.10297885 0.1967541 0.60786176 0.31300253
0.21319154 0.5212338 0.032965165 0.44653434 0.5321401 -0.6354388 -0.24617203 0.6675169
-0.21810172 0.7559208 0.62868905 0.7355733 0.43310273 0.5513273 -0.11821333 -0.12043507
-0.23782851 -0.18675981 -0.38681966 0.44128823 -0.08705193 0.20936239 0.16951287 0.33689335
-0.13439451 0.013773483 -0.02257258 0.026761735 -0.25430724 -0.29467544 0.23976213 -0.11722023
0.44460058 0.07534773 -0.63231546 -0.2799863 0.41704637 -0.349788 0.36355877 -0.1288989
0.19794293 0.0056452123 -0.1273393 -0.294374 0.28184018 0.35914832 0.37158462 -0.5156424
0.36706665 0.3523768 0.5060952 0.39788046 0.29575357 0.19743353 0.25073606 0.23234533
-0.02822613 0.27287117 0.34922192 -0.55899453 -0.06523954 0.57138467 -0.17281407 0.41484863
0.3969495 0.20089215 0.4229201 0.29891175 -0.27666682 -0.36602128 -0.10262496 -0.23650686
-0.39389318 0.13131645 0.0038544536 0.46702594 -0.0879339 0.25485003 -0.16238582 0.48484778
0.44249 0.34014073 -0.32606328 -0.1410556 0.018580198 -0.16693173 0.4891006 -0.25890195
-0.560009 -0.25873047 0.25702748 -0.38284943 0.27733904 -0.15139659 0.45352843 0.28178546
0.3951088 -0.117852695 -0.5511034 0.37136504 -0.038920593 0.8753088 -0.284386 -0.40836665
-0.6137131 -0.46726638 0.2413794 0.4423217 -0.113191575 0.32518673 -0.22044049 0.34769806
0.29613617 0.7944024 0.32223678 0.22564287 0.3311351 0.20500562 0.13618098 0.48563117
0.2568893 0.2722635 0.57785994 -0.37693226 0.15982781 -0.1883248 0.5660362 0.23507836
0.36835408 -0.3758393 -0.0988523 0.3300764 0.33775824 -0.38745454 -0.34312537 -0.18082805

l1.bias f4 [8]
00000000: 0fa8 963e cc9a cc3e fcaf 223f 621a 0f3f
00000010: ad83 5f3f cd11 f13e 3552 593f 2001 07be
0.29425094 0.3996185 0.6354978 0.5589963 0.87310296 0.47083893 0.8489106 -0.13184023

l2.weight f4 [8, 8]
00000000: 217f 1a3f ad17 c73e ff93 87bf 5ab7 6abf
00000010: de64 323f 1ee2 603f af79 603f 6bdc 25be
00000020: 0d44 863f 029e 4a3d 3f2a 0b3f 4e2c 413e
00000030: 1f7d b03f 1fcf b1bd 7cfd fcbe ee1c 333e
00000040: 4b6b 43bf cb78 3b3e c9d5 2dbf e115 f3be
00000050: 8eec 873f 013f 8a3e d866 04be 8611 393e
00000060: 4f41 50bf 925f 713f c7b6 733f af25 13be
00000070: 4711 f83e af20 913f f9a1 23bf b424 5abe
00000080: 0afa 0c3f d995 3d3f 1b67 e63e 765d 273f
00000090: 2d79 c1be a6ba e3bd 503b 423e cc66 4abe
000000a0: e36a 19be f82b 95bf 789a f73e 1f12 eabd
000000b0: bc6e 6e3f 3548 c7be 159f 133f 0074 2a3d
000000c0: b420 25bf 154b 91bf 47af 323f 3092 5c3f
000000d0: b9d0 563e fcea f6be 20e4 883f 44e8 97be
000000e0: 73ce 43bf 57a6 2b3f 784e 2f3f 8704 773f
000000f0: 07f8 84bf 0e56 86bd 378b 893f e716 b13e
0.60350233 0.3888525 -1.059204 -0.9168602 0.6968516 0.8784503 0.87685674 -0.16197364
1.0489517 0.049467094 0.5436134 0.18864557 1.3788184 -0.08682083 -0.49412143 0.17491505
-0.7633559 0.18307798 -0.67904335 -0.4747763 1.0619066 0.27001193 -0.12929857 0.18073091
-0.81349653 0.94286454 0.9520077 -0.14369844 0.48450682 1.1338099 -0.63919026 -0.21303064
0.5506903 0.74056774 0.45000538 0.65376985 -0.37787762 -0.11119585 0.18967938 -0.19765776
-0.1498218 -1.1654043 0.48360038 -0.114292376 0.9313772 -0.38922277 0.57664615 0.041614532
-0.64503026 -1.1351038 0.697987 0.86160564 0.20978059 -0.48226154 1.0694618 -0.29669392
-0.7648689 0.6705069 0.6847911 0.96491283 -1.0388192 -0.065593824 1.074561 0.34587786

l2.bias f4 [8]
00000000: c0f0 253f 86ea 073f b95e ab3e 236d cd3e
00000010: a81a e0be 99f8 463e 7ef4 393f 446f ef3d
0.6482048 0.5309223 0.33470705 0.40122327 -0.43770337 0.1943077 0.7263869 0.11691144

l3.weight f4 [7, 8]
00000000: 80f8 90bf 2ca1 263f 294c 8a3d eb4a 033e
00000010: c0fd 063f 80ad a5bf 8afe 6bbf 0888 66bf
00000020: 7a3f 0e3f 88c4 afbf bc69 44bf 8c0d c63e
00000030: 51d5 4b3d fecf 33bf 9018 32bf a6a7 bf3d
00000040: 2827 c13e 4abe 33bb f917 213f f699 a7bf
00000050: 14a5 f9bf a3d8 403f 49eb 743e 43db c0bf
00000060: afab 93bf 9194 663e 1ba7 95bf ca16 673e
00000070: 373f 86bf a319 153f 831c 2e3f 5be5 e1bd
00000080: ec82 273f 407e 5b3f 767f b1bf 3897 7bbf
00000090: abab 1ebf ab9f 12bd 75ec b4bf 69d5 86bf
000000a0: b9f3 7fbf 6bf7 90bf a0f0 93be 4e49 8cbf
000000b0: 1353 743f 8d58 b2bf d918 f53e 9fa8 263f
000000c0: 652d 9c3e e491 5fbd 5327 633f 7243 313f
000000d0: c81e 6cbf e2c5 9ebf 30b5 80bf 98fd aabf
-1.1325836 0.6508968 0.06752808 0.12821548 0.5273094 -1.2943573 -0.9218527 -0.9005132
0.5556561 -1.3731852 -0.7672384 0.3868221 0.04976398 -0.70239246 -0.6956873 0.09358148
0.37725186 -0.0027426654 0.62927204 -1.309386 -1.9503503 0.7533056 0.23917879 -1.5066913
-1.1536769 0.22517611 -1.1691622 0.22567287 -1.0488042 0.58242244 0.68012255 -0.11030074
0.65434146 0.8573952 -1.3867023 -0.98277617 -0.61980695 -0.035796802 -1.4134661 -1.0533878
-0.99981266 -1.1325506 -0.2889452 -1.0959871 0.9543926 -1.3933274 0.4787052 0.65101045
0.30503383 -0.05458249 0.8873188 0.6924354 -0.9223447 -1.2404139 -1.0055294 -1.3358641

l3.bias f4 [7]
00000000: 605c b8bc dc55 423e 449c 363e 0155 8b3e
00000010: 5a00 c1bd 495a d2bd f79d 1abd
-0.022504985 0.18978065 0.17833048 0.2721329 -0.09423895 -0.10271127 -0.037748303
