data.pth (torch, 3991 bytes, 6 tensors)

l1.weight f4 [8, 30]
00000000: 1335 afbe 6c2c 153e bd87 dd39 f1e8 b33e
00000010: 3891 b93e 3a16 7bbf 33e6 da3f 86f6 913f
00000020: 9cc8 b73e 5d8a a73e cc07 bf3e 030b 923f
00000030: 5dfc 843d f12f a73d 0773 06be 4c82 1b3e
00000040: 1d1e 1c3d 02f4 183e 17a0 173e 7bb6 5b3d
00000050: f77a 333e 8df4 0d3f 8860 e3bc 2366 1a3f
00000060: e84d 2f3f 5b00 1e3f e670 34bf 0db7 edbd
00000070: 4d95 a53e cf24 903e 55b1 853e 906c 923e
00000080: 463e 093f 30f4 26be 53ea b13e f1ea 66bf
00000090: b48e 4cbf c516 673f 3c89 c13e d093 1cbe
000000a0: 16d0 903e 29ae 2f3f a9d8 05be c3b1 473f
000000b0: aca8 153e d6ba 5e3f 6a11 263f 9989 223f
000000c0: 7540 063e 3a9e f4bd 7baa 193f 32ea 113f
000000d0: 5d69 2d3e 931c 2e3d f91b 5c3c 3ebd af3e
000000e0: a7e9 dcbc 4579 043d 777d b53e 4211 6b3e
000000f0: 2715 3c3f 520c 3a3f dd20 053f 8461 babe
00000100: d4a6 e53e 021a 453f 64de e93e 8498 6f3d
00000110: e7f9 153f 9a20 a2be 7a2a 003f d055 44be
00000120: 5801 083f 57c0 2f3f 2cb4 2c3f 969d 2b3f
00000130: e4c2 0b3f 2362 a93e 5381 1a3f 7345 6e3e
00000140: 862d 8e3e 646f 1cbe fe90 fc3e 5519 4dbf
00000150: 0bb9 2bbf 7ef3 1c3e ec41 753f c447 573f
00000160: c941 e83e aaf9 6b3f aff2 543f d037 e43e
00000170: d1e6 fe3e dc6a a1bd 8548 a83e b029 6ebf
00000180: 2ee5 523f a24c 41bf c6ed f23e 8af1 0a3e
00000190: d573 243f 63dc 19bf 10c1 063e ffb5 603f
000001a0: 2f70 433f 2a97 6a3f 0b43 3b3f 69bb 843e
000001b0: 3fb2 093e d2ba 3b3d 2f5a a63e 6cfe e1be
000001c0: c835 0c3f 6114 a1be 97a1 87be 78fa 45bf
000001d0: 465c a43f f1bf 563f d9a8 093f 335a 223f
000001e0: f0ae d7be ec84 9ebd 1fc1 90be 5ac7 5c3e
000001f0: 9bdc 0fbf 50e3 b33e 112a 8c3f 6e8a 7e3f
00000200: f4b8 eabe 81ee c23e 2a11 06bf 66e1 5f3f
00000210: ea06 293f 733f 57bf 4bf3 8bbe d6ae 23bf
00000220: 1d92 59bf b769 d5be ccf5 3e3f 6e74 de3e
00000230: ce63 2fbe 296a 473f 7eb2 fcbd 43f3 bc3e
00000240: 9a39 363f e207 453f 412b 7dbf b57c 65be
00000250: 3c78 78be d313 4fbb 9491 a6be 6bf7 d63d
00000260: a507 d83d 0959 003e ea18 cc3d f9aa a8bf
00000270: 8921 e93f 1473 913f 5d61 9dbe 1c36 863e
00000280: cedb 92be fb40 753f 668d 8b3d eaa1 12be
00000290: c143 23be 59a0 6fbe d93d 82be c562 04be
000002a0: 1242 733e 4914 a73d 2652 93bd 3031 293f
000002b0: f4ee 2abe 9a19 ce3e 5870 b03e 2d22 243f
000002c0: 11e6 49be e465 d5bd 2078 86bd 757d 353e
000002d0: 2e41 72bd 07a3 d3bd 0bef cd3d 6dab 473f
000002e0: b52c 0b3e aa50 a3be e0f5 41be b810 8d3f
000002f0: d029 4b3e e1b5 383f 3506 f23e 4796 5f3f
00000300: 275c 9cbc 456e 083f 1242 b8be 6e3b cf3e
00000310: 3e6e 1a3f d7e4 403e e347 cb3c e6df 883c
00000320: fad6 a33e c589 473f 40d3 d8bb 76b6 823f
00000330: 6a62 ac3f 4c8d 563f a3d2 20bf e906 61be
00000340: 6d63 5f3e 9fd5 65ba acb3 8d3e 7755 a23e
00000350: ab28 1a3f 08ce fdbc 8f89 223f 97a5 70bf
00000360: 827a 59bf f929 783f b137 b53e dccc e0bd
00000370: 2de5 0b3f 01b7 753f 4a48 1cbe 75e4 433f
00000380: 32cd a53d 8680 6e3f 8bb3 113f 388e fc3e
00000390: 2a27 eeba a8cc 1dbe 23a5 c23e 4cd5 053f
000003a0: 081a 803e 9865 2ebe 6038 8cbc 0487 e93e
000003b0: 1ea5 16bd 8bc9 953d f0aa 213f 31fe 9d3e
-0.3422018 0.14567727 0.00042253538 0.35138658 0.36243606 -0.9808079 1.7101501 1.1403358
0.3589524 0.3272275 0.37310636 1.140961 0.06493447 0.08163441 -0.13129817 0.15186423
0.038114656 0.14936832 0.14807163 0.053640824 0.17527376 0.5545128 -0.02775599 0.603121
0.6847825 0.6171929 -0.7048477 -0.1160718 0.3234047 0.28153083 0.26111856 0.28598452
0.53610647 -0.16304088 0.34749088 -0.9020224 -0.7990525 0.9026912 0.37800014 -0.15290761
0.28283757 0.6862512 -0.1307093 0.7800562 0.14615124 0.8700384 0.6487032 0.6349121
0.13110526 -0.11944242 0.6002576 0.5699798 0.16934724 0.04250772 0.013434404 0.34324068
-0.026966883 0.032342214 0.35447285 0.22955802 0.73469776 0.7267505 0.5200327 -0.36402524
0.44853842 0.7699281 0.45677483 0.05849506 0.58584446 -0.31665498 0.50064814 -0.1917336
0.5312705 0.6865286 0.6746242 0.6703733 0.54594254 0.33082685 0.60353583 0.2326868
0.27769107 -0.15276867 0.4932937 -0.8011678 -0.6707923 0.1532726 0.95803714 0.8409388
0.4536269 0.9217783 0.83182806 0.44573832 0.49785474 -0.0788171 0.32867828 -0.9303236
0.8238095 -0.7550756 0.47447032 0.13568702 0.64239246 -0.6010191 0.13159585 0.87777704
0.76343054 0.9163691 0.73149174 0.25924233 0.13446902 0.045832463 0.3249068 -0.4413942
0.54769564 -0.3146086 -0.2649047 -0.7733531 1.284066 0.8388663 0.53773266 0.63418883
-0.42125654 -0.077401966 -0.2827234 0.21560422 -0.5619599 0.35134363 1.0950338 0.99429977
-0.45844233 0.3807259 -0.5236994 0.87453306 0.66026175 -0.8408119 -0.27334055 -0.63938653
-0.84988576 -0.41682217 0.74593806 0.43448204 -0.17127916 0.7789636 -0.12338732 0.36904344
0.71181643 0.76965153 -0.98894125 -0.22410853 -0.24264616 -0.003159751 -0.32532942 0.1049641
0.10548333 0.12533964 0.099656895 -1.3177177 1.8213359 1.1363244 -0.30738345 0.26213157
-0.28683323 0.9580228 0.06814079 -0.14319578 -0.15943815 -0.23401012 -0.2543781 -0.12928303
0.23755673 0.08158166 -0.07193403 0.6609068 -0.16692716 0.40253907 0.3446071 0.6411465
-0.1971667 -0.10419825 -0.06565881 0.1772364 -0.05914419 -0.103338294 0.100553595 0.7799595
0.13591273 -0.3189748 -0.1894145 1.1020727 0.19840169 0.72152525 0.4727036 0.8733868
-0.01908691 0.5329326 -0.35987908 0.4047503 0.60324466 0.18837295 0.024814552 0.016708326
0.31999952 0.77944595 -0.00661698 1.0211933 1.3467534 0.8380935 -0.62821406 -0.21975292
0.21815272 -0.0008767489 0.2767614 0.3170583 0.60218304 -0.030982032 0.6349115 -0.9400267
-0.8495256 0.96939045 0.35394052 -0.10976574 0.5464657 0.95982367 -0.15261951 0.7652047
0.080957785 0.9316486 0.56914586 0.49327254 -0.0018169631 -0.15410101 0.38016614 0.5227859
0.2501986 -0.17030942 -0.017116725 0.4561082 -0.03677856 0.07313832 0.63151455 0.30857995

l1.bias f4 [8]
00000000: 1ec2 173f 3ad7 663f 147c a63f 13a7 913f
00000010: a5f5 7d3f 1be9 153f 708a 233f fca7 703f
0.59280574 0.9017216 1.3006616 1.1379112 0.9920295 0.58558816 0.63883114 0.94006324

l2.weight f4 [8, 8]
00000000: f82a 4bbc 32e3 87be ba92 20be ebbe 143e
00000010: 13ba 933d 8627 9ebd 7645 07be 40da f13d
00000020: f834 bf3f 79f7 22bf edd2 9bbe ece7 09bc
00000030: f054 a43f 619b d93f e421 103f 2c57 01bf
00000040: 2fa7 003f f393 8e3f 213a 073e b56a 83bf
00000050: 313b 8e3f 8fe3 c8bd 787b ea3f 1c0c 833f
00000060: 1261 7e3e 4f41 a0be 201e 80bd 8c1c b23d
00000070: 707e 87be 8725 94be 8579 a6be ff3c 2dbe
00000080: 288c 60bf 6ce7 70bf 3861 b13f 6b81 4f3f
00000090: f557 973f 40ca 20be 6137 bbbf 7456 50bf
000000a0: b0c6 87be 648a 91be f882 29bd 78fe c73d
000000b0: 5033 1dbd 9db3 9bbe d034 9fbd 4620 65be
000000c0: b26a 01be f2bd d73c 40c5 54bd f17e 053e
000000d0: 88de 8b3d e065 d83d fc25 91be 8ac6 28bd
000000e0: 03e0 243f a716 c73f c4fc 683f 535c d53f
000000f0: 71a5 6bbf 259c 093f 61d1 9c3e 9a54 a43f
-0.012400381 -0.26540524 -0.15680972 0.14525954 0.07213225 -0.07722382 -0.13210091 0.11809206
1.493804 -0.63658863 -0.3043436 -0.008417111 1.2838421 1.7000543 0.56301713 -0.5052364
0.502551 1.11389 0.13205768 -1.0266939 1.1111814 -0.09809028 1.831893 1.023807
0.24841717 -0.31299827 -0.06255746 0.08696851 -0.26463652 -0.2893488 -0.32514587 -0.169178
-0.8771386 -0.9410312 1.3857794 0.8105685 1.1823717 -0.15702152 -1.4626275 -0.81381917
-0.26518774 -0.28425896 -0.041384667 0.09765333 -0.038379014 -0.30410472 -0.07773745 -0.22375593
-0.12638357 0.02633569 -0.051945925 0.13036706 0.06829554 0.10566306 -0.28349292 -0.041204967
0.64404315 1.5553788 0.9101069 1.66688 -0.9204932 0.5375388 0.30628493 1.2838318

l2.bias f4 [8]
00000000: c8fa cdbd 0991 73bd 35d2 9a3e c814 b4be
00000010: 40f1 653f c7b5 51be 8228 9cbe 90f9 3e3e
-0.10057598 -0.05946449 0.302385 -0.35172105 0.89821243 -0.20479499 -0.30499655 0.18649888

l3.weight f4 [7, 8]
00000000: dc0f babd 5626 1abf 70b8 3dbf 1605 9cbe
00000010: 559c 723f c90c b23e 3f91 ae3c 7801 78be
00000020: e1a1 30be 53ec df3e c072 943e c0aa aebc
00000030: 74b4 9abf 94fe d23d 1edb 9bbd 8976 cabf
00000040: b19b 8fbe 87b5 223f cab7 81bf 9147 883e
00000050: 904a 54be c413 94be 14ee 90be b69b 8c3d
00000060: 72d9 a43e 1675 493f 75d5 1ebe e218 8cbe
00000070: 6246 9abf 2d8e 96be ed57 d5bc d014 3bbf
00000080: 1378 88bd f416 86be 235e 9c3e 26d1 8dbe
00000090: 5537 91bf 0b0c 39be 279c 55be 1336 1f3e
000000a0: bf77 133e de98 c8bf c22d 7d3d 2e87 163e
000000b0: 0d0b 9dbf d0e3 d13c d0fa da3d 5580 4a3f
000000c0: 41ac c93d 28ae 95bf 1739 c4bf 8341 b13e
000000d0: 602e 7a3e 00ff 563b d554 72be 7b9b 443f
-0.09085056 -0.60214746 -0.74109554 -0.3047263 0.94769794 0.3477538 0.021309493 -0.2421931
-0.17249252 0.4373499 0.28993797 -0.021321654 -1.208632 0.10302463 -0.07610153 -1.5817424
-0.2804847 0.6355824 -1.0134213 0.266171 -0.20731568 -0.2892133 -0.2830664 0.06865637
0.32197148 0.78694284 -0.15511115 -0.27362734 -1.2052729 -0.29405347 -0.026042903 -0.7307863
-0.06663527 -0.26189387 0.3054057 -0.2769863 -1.1345011 -0.18071 -0.20860349 0.15547971
0.14401148 -1.5671651 0.061811216 0.14700004 -1.2268997 0.025621325 0.1069237 0.7910207
0.09847308 -1.1693773 -1.5329922 0.34620294 0.24431753 0.00328058 -0.23665173 0.76799744

l3.bias f4 [7]
00000000: 5382 3d3e 0708 173f 41de 94be 2d57 5ebf
00000010: eed9 5abc 9766 0f3e 3a0c 1dbe
0.18506746 0.58996624 -0.29075816 -0.8685177 -0.013357623 0.14003979 -0.15336695
